…
** some project setting **
	SEED    = 235202
	file    = /root/share/project/kaggle-carvana-cars/build/car-segment_double/train_seg_net.py
	out_dir = /root/share/project/kaggle-carvana-cars/results/baseline/UNet128-weight-00

** dataset setting **
	train_dataset.split = train_v0_4320
	valid_dataset.split = valid_v0_768
	test_dataset.split  = test_3197
	len(train_dataset)  = 4320
	len(valid_dataset)  = 768
	len(test_dataset)   = 3197
** net setting **
<class 'net.segmentation.my_unet_baseline.UNet128'>

UNet128 (
  (down3): StackEncoder (
    (encode): Sequential (
      (0): ConvBnRelu2d (
        (conv): Conv2d(3, 128, kernel_size=(3, 3), stride=(1, 1), padding=(1, 1), bias=False)
        (bn): BatchNorm2d(128, eps=0.0001, momentum=0.1, affine=True)
        (relu): ReLU (inplace)
      )
      (1): ConvBnRelu2d (
        (conv): Conv2d(128, 128, kernel_size=(3, 3), stride=(1, 1), padding=(1, 1), bias=False)
        (bn): BatchNorm2d(128, eps=0.0001, momentum=0.1, affine=True)
        (relu): ReLU (inplace)
      )
    )
  )
  (down4): StackEncoder (
    (encode): Sequential (
      (0): ConvBnRelu2d (
        (conv): Conv2d(128, 256, kernel_size=(3, 3), stride=(1, 1), padding=(1, 1), bias=False)
        (bn): BatchNorm2d(256, eps=0.0001, momentum=0.1, affine=True)
        (relu): ReLU (inplace)
      )
      (1): ConvBnRelu2d (
        (conv): Conv2d(256, 256, kernel_size=(3, 3), stride=(1, 1), padding=(1, 1), bias=False)
        (bn): BatchNorm2d(256, eps=0.0001, momentum=0.1, affine=True)
        (relu): ReLU (inplace)
      )
    )
  )
  (down5): StackEncoder (
    (encode): Sequential (
      (0): ConvBnRelu2d (
        (conv): Conv2d(256, 512, kernel_size=(3, 3), stride=(1, 1), padding=(1, 1), bias=False)
        (bn): BatchNorm2d(512, eps=0.0001, momentum=0.1, affine=True)
        (relu): ReLU (inplace)
      )
      (1): ConvBnRelu2d (
        (conv): Conv2d(512, 512, kernel_size=(3, 3), stride=(1, 1), padding=(1, 1), bias=False)
        (bn): BatchNorm2d(512, eps=0.0001, momentum=0.1, affine=True)
        (relu): ReLU (inplace)
      )
    )
  )
  (down6): StackEncoder (
    (encode): Sequential (
      (0): ConvBnRelu2d (
        (conv): Conv2d(512, 1024, kernel_size=(3, 3), stride=(1, 1), padding=(1, 1), bias=False)
        (bn): BatchNorm2d(1024, eps=0.0001, momentum=0.1, affine=True)
        (relu): ReLU (inplace)
      )
      (1): ConvBnRelu2d (
        (conv): Conv2d(1024, 1024, kernel_size=(3, 3), stride=(1, 1), padding=(1, 1), bias=False)
        (bn): BatchNorm2d(1024, eps=0.0001, momentum=0.1, affine=True)
        (relu): ReLU (inplace)
      )
    )
  )
  (center): Sequential (
    (0): ConvBnRelu2d (
      (conv): Conv2d(1024, 1024, kernel_size=(3, 3), stride=(1, 1), padding=(1, 1), bias=False)
      (bn): BatchNorm2d(1024, eps=0.0001, momentum=0.1, affine=True)
      (relu): ReLU (inplace)
    )
  )
  (up6): StackDecoder (
    (decode): Sequential (
      (0): ConvBnRelu2d (
        (conv): Conv2d(2048, 512, kernel_size=(3, 3), stride=(1, 1), padding=(1, 1), bias=False)
        (bn): BatchNorm2d(512, eps=0.0001, momentum=0.1, affine=True)
        (relu): ReLU (inplace)
      )
      (1): ConvBnRelu2d (
        (conv): Conv2d(512, 512, kernel_size=(3, 3), stride=(1, 1), padding=(1, 1), bias=False)
        (bn): BatchNorm2d(512, eps=0.0001, momentum=0.1, affine=True)
        (relu): ReLU (inplace)
      )
      (2): ConvBnRelu2d (
        (conv): Conv2d(512, 512, kernel_size=(3, 3), stride=(1, 1), padding=(1, 1), bias=False)
        (bn): BatchNorm2d(512, eps=0.0001, momentum=0.1, affine=True)
        (relu): ReLU (inplace)
      )
    )
  )
  (up5): StackDecoder (
    (decode): Sequential (
      (0): ConvBnRelu2d (
        (conv): Conv2d(1024, 256, kernel_size=(3, 3), stride=(1, 1), padding=(1, 1), bias=False)
        (bn): BatchNorm2d(256, eps=0.0001, momentum=0.1, affine=True)
        (relu): ReLU (inplace)
      )
      (1): ConvBnRelu2d (
        (conv): Conv2d(256, 256, kernel_size=(3, 3), stride=(1, 1), padding=(1, 1), bias=False)
        (bn): BatchNorm2d(256, eps=0.0001, momentum=0.1, affine=True)
        (relu): ReLU (inplace)
      )
      (2): ConvBnRelu2d (
        (conv): Conv2d(256, 256, kernel_size=(3, 3), stride=(1, 1), padding=(1, 1), bias=False)
        (bn): BatchNorm2d(256, eps=0.0001, momentum=0.1, affine=True)
        (relu): ReLU (inplace)
      )
    )
  )
  (up4): StackDecoder (
    (decode): Sequential (
      (0): ConvBnRelu2d (
        (conv): Conv2d(512, 128, kernel_size=(3, 3), stride=(1, 1), padding=(1, 1), bias=False)
        (bn): BatchNorm2d(128, eps=0.0001, momentum=0.1, affine=True)
        (relu): ReLU (inplace)
      )
      (1): ConvBnRelu2d (
        (conv): Conv2d(128, 128, kernel_size=(3, 3), stride=(1, 1), padding=(1, 1), bias=False)
        (bn): BatchNorm2d(128, eps=0.0001, momentum=0.1, affine=True)
        (relu): ReLU (inplace)
      )
      (2): ConvBnRelu2d (
        (conv): Conv2d(128, 128, kernel_size=(3, 3), stride=(1, 1), padding=(1, 1), bias=False)
        (bn): BatchNorm2d(128, eps=0.0001, momentum=0.1, affine=True)
        (relu): ReLU (inplace)
      )
    )
  )
  (up3): StackDecoder (
    (decode): Sequential (
      (0): ConvBnRelu2d (
        (conv): Conv2d(256, 64, kernel_size=(3, 3), stride=(1, 1), padding=(1, 1), bias=False)
        (bn): BatchNorm2d(64, eps=0.0001, momentum=0.1, affine=True)
        (relu): ReLU (inplace)
      )
      (1): ConvBnRelu2d (
        (conv): Conv2d(64, 64, kernel_size=(3, 3), stride=(1, 1), padding=(1, 1), bias=False)
        (bn): BatchNorm2d(64, eps=0.0001, momentum=0.1, affine=True)
        (relu): ReLU (inplace)
      )
      (2): ConvBnRelu2d (
        (conv): Conv2d(64, 64, kernel_size=(3, 3), stride=(1, 1), padding=(1, 1), bias=False)
        (bn): BatchNorm2d(64, eps=0.0001, momentum=0.1, affine=True)
        (relu): ReLU (inplace)
      )
    )
  )
  (classify): Conv2d(64, 1, kernel_size=(1, 1), stride=(1, 1))
)

    def __init__(self, in_shape):
        super(UNet128, self).__init__()
        C,H,W = in_shape
        assert(C==3)

        #128
        self.down3 = StackEncoder( C,   128, kernel_size=3)   # 64
        self.down4 = StackEncoder(128,  256, kernel_size=3)   # 32
        self.down5 = StackEncoder(256,  512, kernel_size=3)   # 16
        self.down6 = StackEncoder(512, 1024, kernel_size=3)   #  8
…
