…
                  scale_limit=(-0.09,0.121), rotate_limit=(-0,0))

        #image, label = random_mask_hue(image, label, hue_limit=(-1,1), u=0.5)
        #image = random_hue(image, hue_limit=(-1,1), u=0.5)
        # image = random_brightness(image, limit=(-0.5,0.5), u=0.5)
        # image = random_contrast  (image, limit=(-0.5,0.5), u=0.5)
        # image = random_saturation(image, limit=(-0.3,0.3), u=0.5)
        # image = random_gray(image, u=0.25)

        return  image, label


** net setting **
<class 'net.segmentation.my_unet_baseline.UNet1024'>

UNet1024 (
  (down1): StackEncoder (
    (encode): Sequential (
      (0): ConvBnRelu2d (
        (conv): Conv2d(3, 24, kernel_size=(3, 3), stride=(1, 1), padding=(1, 1), bias=False)
        (bn): BatchNorm2d(24, eps=0.0001, momentum=0.1, affine=True)
        (relu): ReLU (inplace)
      )
      (1): ConvBnRelu2d (
        (conv): Conv2d(24, 24, kernel_size=(3, 3), stride=(1, 1), padding=(1, 1), bias=False)
        (bn): BatchNorm2d(24, eps=0.0001, momentum=0.1, affine=True)
        (relu): ReLU (inplace)
      )
    )
  )
  (down2): StackEncoder (
    (encode): Sequential (
      (0): ConvBnRelu2d (
        (conv): Conv2d(24, 64, kernel_size=(3, 3), stride=(1, 1), padding=(1, 1), bias=False)
        (bn): BatchNorm2d(64, eps=0.0001, momentum=0.1, affine=True)
        (relu): ReLU (inplace)
      )
      (1): ConvBnRelu2d (
        (conv): Conv2d(64, 64, kernel_size=(3, 3), stride=(1, 1), padding=(1, 1), bias=False)
        (bn): BatchNorm2d(64, eps=0.0001, momentum=0.1, affine=True)
        (relu): ReLU (inplace)
      )
    )
  )
  (down3): StackEncoder (
    (encode): Sequential (
      (0): ConvBnRelu2d (
        (conv): Conv2d(64, 128, kernel_size=(3, 3), stride=(1, 1), padding=(1, 1), bias=False)
        (bn): BatchNorm2d(128, eps=0.0001, momentum=0.1, affine=True)
        (relu): ReLU (inplace)
      )
      (1): ConvBnRelu2d (
        (conv): Conv2d(128, 128, kernel_size=(3, 3), stride=(1, 1), padding=(1, 1), bias=False)
        (bn): BatchNorm2d(128, eps=0.0001, momentum=0.1, affine=True)
        (relu): ReLU (inplace)
      )
    )
  )
  (down4): StackEncoder (
    (encode): Sequential (
      (0): ConvBnRelu2d (
        (conv): Conv2d(128, 256, kernel_size=(3, 3), stride=(1, 1), padding=(1, 1), bias=False)
        (bn): BatchNorm2d(256, eps=0.0001, momentum=0.1, affine=True)
        (relu): ReLU (inplace)
      )
      (1): ConvBnRelu2d (
        (conv): Conv2d(256, 256, kernel_size=(3, 3), stride=(1, 1), padding=(1, 1), bias=False)
        (bn): BatchNorm2d(256, eps=0.0001, momentum=0.1, affine=True)
        (relu): ReLU (inplace)
      )
    )
  )
  (down5): StackEncoder (
    (encode): Sequential (
      (0): ConvBnRelu2d (
        (conv): Conv2d(256, 512, kernel_size=(3, 3), stride=(1, 1), padding=(1, 1), bias=False)
        (bn): BatchNorm2d(512, eps=0.0001, momentum=0.1, affine=True)
        (relu): ReLU (inplace)
      )
      (1): ConvBnRelu2d (
        (conv): Conv2d(512, 512, kernel_size=(3, 3), stride=(1, 1), padding=(1, 1), bias=False)
        (bn): BatchNorm2d(512, eps=0.0001, momentum=0.1, affine=True)
        (relu): ReLU (inplace)
      )
    )
  )
  (down6): StackEncoder (
    (encode): Sequential (
      (0): ConvBnRelu2d (
        (conv): Conv2d(512, 768, kernel_size=(3, 3), stride=(1, 1), padding=(1, 1), bias=False)
        (bn): BatchNorm2d(768, eps=0.0001, momentum=0.1, affine=True)
        (relu): ReLU (inplace)
      )
      (1): ConvBnRelu2d (
        (conv): Conv2d(768, 768, kernel_size=(3, 3), stride=(1, 1), padding=(1, 1), bias=False)
        (bn): BatchNorm2d(768, eps=0.0001, momentum=0.1, affine=True)
        (relu): ReLU (inplace)
      )
    )
  )
  (center): Sequential (
    (0): ConvBnRelu2d (
      (conv): Conv2d(768, 768, kernel_size=(3, 3), stride=(1, 1), padding=(1, 1), bias=False)
      (bn): BatchNorm2d(768, eps=0.0001, momentum=0.1, affine=True)
      (relu): ReLU (inplace)
    )
  )
  (up6): StackDecoder (
    (decode): Sequential (
      (0): ConvBnRelu2d (
        (conv): Conv2d(1536, 512, kernel_size=(3, 3), stride=(1, 1), padding=(1, 1), bias=False)
        (bn): BatchNorm2d(512, eps=0.0001, momentum=0.1, affine=True)
        (relu): ReLU (inplace)
      )
      (1): ConvBnRelu2d (
        (conv): Conv2d(512, 512, kernel_size=(3, 3), stride=(1, 1), padding=(1, 1), bias=False)
        (bn): BatchNorm2d(512, eps=0.0001, momentum=0.1, affine=True)
        (relu): ReLU (inplace)
      )
      (2): ConvBnRelu2d (
        (conv): Conv2d(512, 512, kernel_size=(3, 3), stride=(1, 1), padding=(1, 1), bias=False)
        (bn): BatchNorm2d(512, eps=0.0001, momentum=0.1, affine=True)
        (relu): ReLU (inplace)
      )
    )
  )
  (up5): StackDecoder (
    (decode): Sequential (
      (0): ConvBnRelu2d (
        (conv): Conv2d(1024, 256, kernel_size=(3, 3), stride=(1, 1), padding=(1, 1), bias=False)
        (bn): BatchNorm2d(256, eps=0.0001, momentum=0.1, affine=True)
        (relu): ReLU (inplace)
      )
      (1): ConvBnRelu2d (
        (conv): Conv2d(256, 256, kernel_size=(3, 3), stride=(1, 1), padding=(1, 1), bias=False)
        (bn): BatchNorm2d(256, eps=0.0001, momentum=0.1, affine=True)
        (relu): ReLU (inplace)
      )
      (2): ConvBnRelu2d (
        (conv): Conv2d(256, 256, kernel_size=(3, 3), stride=(1, 1), padding=(1, 1), bias=False)
        (bn): BatchNorm2d(256, eps=0.0001, momentum=0.1, affine=True)
        (relu): ReLU (inplace)
      )
    )
  )
  (up4): StackDecoder (
    (decode): Sequential (
      (0): ConvBnRelu2d (
        (conv): Conv2d(512, 128, kernel_size=(3, 3), stride=(1, 1), padding=(1, 1), bias=False)
        (bn): BatchNorm2d(128, eps=0.0001, momentum=0.1, affine=True)
        (relu): ReLU (inplace)
      )
      (1): ConvBnRelu2d (
        (conv): Conv2d(128, 128, kernel_size=(3, 3), stride=(1, 1), padding=(1, 1), bias=False)
        (bn): BatchNorm2d(128, eps=0.0001, momentum=0.1, affine=True)
        (relu): ReLU (inplace)
      )
      (2): ConvBnRelu2d (
        (conv): Conv2d(128, 128, kernel_size=(3, 3), stride=(1, 1), padding=(1, 1), bias=False)
        (bn): BatchNorm2d(128, eps=0.0001, momentum=0.1, affine=True)
        (relu): ReLU (inplace)
      )
    )
  )
  (up3): StackDecoder (
    (decode): Sequential (
      (0): ConvBnRelu2d (
        (conv): Conv2d(256, 64, kernel_size=(3, 3), stride=(1, 1), padding=(1, 1), bias=False)
        (bn): BatchNorm2d(64, eps=0.0001, momentum=0.1, affine=True)
        (relu): ReLU (inplace)
      )
      (1): ConvBnRelu2d (
        (conv): Conv2d(64, 64, kernel_size=(3, 3), stride=(1, 1), padding=(1, 1), bias=False)
        (bn): BatchNorm2d(64, eps=0.0001, momentum=0.1, affine=True)
        (relu): ReLU (inplace)
      )
      (2): ConvBnRelu2d (
        (conv): Conv2d(64, 64, kernel_size=(3, 3), stride=(1, 1), padding=(1, 1), bias=False)
        (bn): BatchNorm2d(64, eps=0.0001, momentum=0.1, affine=True)
        (relu): ReLU (inplace)
      )
    )
  )
  (up2): StackDecoder (
    (decode): Sequential (
      (0): ConvBnRelu2d (
        (conv): Conv2d(128, 24, kernel_size=(3, 3), stride=(1, 1), padding=(1, 1), bias=False)
        (bn): BatchNorm2d(24, eps=0.0001, momentum=0.1, affine=True)
        (relu): ReLU (inplace)
      )
      (1): ConvBnRelu2d (
        (conv): Conv2d(24, 24, kernel_size=(3, 3), stride=(1, 1), padding=(1, 1), bias=False)
        (bn): BatchNorm2d(24, eps=0.0001, momentum=0.1, affine=True)
        (relu): ReLU (inplace)
      )
      (2): ConvBnRelu2d (
        (conv): Conv2d(24, 24, kernel_size=(3, 3), stride=(1, 1), padding=(1, 1), bias=False)
        (bn): BatchNorm2d(24, eps=0.0001, momentum=0.1, affine=True)
        (relu): ReLU (inplace)
      )
    )
  )
  (up1): StackDecoder (
    (decode): Sequential (
      (0): ConvBnRelu2d (
        (conv): Conv2d(48, 24, kernel_size=(3, 3), stride=(1, 1), padding=(1, 1), bias=False)
        (bn): BatchNorm2d(24, eps=0.0001, momentum=0.1, affine=True)
        (relu): ReLU (inplace)
      )
      (1): ConvBnRelu2d (
        (conv): Conv2d(24, 24, kernel_size=(3, 3), stride=(1, 1), padding=(1, 1), bias=False)
        (bn): BatchNorm2d(24, eps=0.0001, momentum=0.1, affine=True)
        (relu): ReLU (inplace)
      )
      (2): ConvBnRelu2d (
        (conv): Conv2d(24, 24, kernel_size=(3, 3), stride=(1, 1), padding=(1, 1), bias=False)
        (bn): BatchNorm2d(24, eps=0.0001, momentum=0.1, affine=True)
        (relu): ReLU (inplace)
      )
    )
  )
  (classify): Conv2d(24, 1, kernel_size=(1, 1), stride=(1, 1))
)

    def __init__(self, in_shape):
        super(UNet1024, self).__init__()
        C,H,W = in_shape
        #assert(C==3)


        #1024
        #self.down0 = StackEncoder(  C,   16, kernel_size=3)   #512
        self.down1 = StackEncoder(  C,   24, kernel_size=3)   #256
        self.down2 = StackEncoder( 24,   64, kernel_size=3)   #128
        self.down3 = StackEncoder( 64,  128, kernel_size=3)   # 64
…
